

Run code & output:


Model Summaries:

Model: "1_Layer"
_________________________________________________________________
 Layer (type)                Output Shape              Param #   
=================================================================
 Conv2D-1 (Conv2D)           (None, 26, 26, 32)        320       
                                                                 
 MaxPool (MaxPooling2D)      (None, 13, 13, 32)        0         
                                                                 
 Dropout (Dropout)           (None, 13, 13, 32)        0         
                                                                 
 flatten (Flatten)           (None, 5408)              0         
                                                                 
 Dense (Dense)               (None, 32)                173088    
                                                                 
 Output (Dense)              (None, 10)                330       
                                                                 
=================================================================
Total params: 173738 (678.66 KB)
Trainable params: 173738 (678.66 KB)
Non-trainable params: 0 (0.00 Byte)
_________________________________________________________________
Model: "2_Layer"
_________________________________________________________________
 Layer (type)                Output Shape              Param #   
=================================================================
 Conv2D-1 (Conv2D)           (None, 26, 26, 32)        320       
                                                                 
 MaxPool (MaxPooling2D)      (None, 13, 13, 32)        0         
                                                                 
 Dropout-1 (Dropout)         (None, 13, 13, 32)        0         
                                                                 
 Conv2D-2 (Conv2D)           (None, 11, 11, 64)        18496     
                                                                 
 Dropout-2 (Dropout)         (None, 11, 11, 64)        0         
                                                                 
 flatten (Flatten)           (None, 7744)              0         
                                                                 
 Dense (Dense)               (None, 64)                495680    
                                                                 
 Output (Dense)              (None, 10)                650       
                                                                 
=================================================================
Total params: 515146 (1.97 MB)
Trainable params: 515146 (1.97 MB)
Non-trainable params: 0 (0.00 Byte)
_________________________________________________________________
Model: "3_layer"
_________________________________________________________________
 Layer (type)                Output Shape              Param #   
=================================================================
 Conv2D-1 (Conv2D)           (None, 26, 26, 32)        320       
                                                                 
 MaxPool (MaxPooling2D)      (None, 13, 13, 32)        0         
                                                                 
 Dropout-1 (Dropout)         (None, 13, 13, 32)        0         
                                                                 
 Conv2D-2 (Conv2D)           (None, 11, 11, 64)        18496     
                                                                 
 Dropout-2 (Dropout)         (None, 11, 11, 64)        0         
                                                                 
 Conv2D-3 (Conv2D)           (None, 9, 9, 128)         73856     
                                                                 
 Dropout-3 (Dropout)         (None, 9, 9, 128)         0         
                                                                 
 flatten (Flatten)           (None, 10368)             0         
                                                                 
 Dense (Dense)               (None, 128)               1327232   
                                                                 
 Dropout (Dropout)           (None, 128)               0         
                                                                 
 Output (Dense)              (None, 10)                1290      
                                                                 
=================================================================
Total params: 1421194 (5.42 MB)
Trainable params: 1421194 (5.42 MB)
Non-trainable params: 0 (0.00 Byte)
_________________________________________________________________








Accuracy :


Epoch 22/50
94/94 [==============================] - 97s 1s/step - loss: 0.1999 - accuracy: 0.9259 - val_loss: 0.2168 - val_accuracy: 0.9204
…
